…
        "model = Net().to(device)\n",
        "summary(model, input_size=(1, 28, 28))"
      ],
      "execution_count": 0,
      "outputs": [
        {
          "output_type": "stream",
          "text": [
            "Requirement already satisfied: torchsummary in /usr/local/lib/python3.6/dist-packages (1.5.1)\n",
            "cuda\n",
            "----------------------------------------------------------------\n",
            "        Layer (type)               Output Shape         Param #\n",
            "================================================================\n",
            "            Conv2d-1            [-1, 8, 26, 26]              72\n",
            "              ReLU-2            [-1, 8, 26, 26]               0\n",
            "       BatchNorm2d-3            [-1, 8, 26, 26]              16\n",
            "           Dropout-4            [-1, 8, 26, 26]               0\n",
            "            Conv2d-5            [-1, 8, 24, 24]             576\n",
            "              ReLU-6            [-1, 8, 24, 24]               0\n",
            "       BatchNorm2d-7            [-1, 8, 24, 24]              16\n",
            "           Dropout-8            [-1, 8, 24, 24]               0\n",
            "         MaxPool2d-9            [-1, 8, 12, 12]               0\n",
            "           Conv2d-10            [-1, 8, 10, 10]             576\n",
            "             ReLU-11            [-1, 8, 10, 10]               0\n",
            "      BatchNorm2d-12            [-1, 8, 10, 10]              16\n",
            "          Dropout-13            [-1, 8, 10, 10]               0\n",
            "           Conv2d-14           [-1, 16, 10, 10]           1,152\n",
            "             ReLU-15           [-1, 16, 10, 10]               0\n",
            "      BatchNorm2d-16           [-1, 16, 10, 10]              32\n",
            "          Dropout-17           [-1, 16, 10, 10]               0\n",
            "           Conv2d-18             [-1, 16, 8, 8]           2,304\n",
            "             ReLU-19             [-1, 16, 8, 8]               0\n",
            "      BatchNorm2d-20             [-1, 16, 8, 8]              32\n",
            "          Dropout-21             [-1, 16, 8, 8]               0\n",
            "           Conv2d-22             [-1, 32, 6, 6]           4,608\n",
            "             ReLU-23             [-1, 32, 6, 6]               0\n",
            "      BatchNorm2d-24             [-1, 32, 6, 6]              64\n",
            "          Dropout-25             [-1, 32, 6, 6]               0\n",
            "        AvgPool2d-26             [-1, 32, 1, 1]               0\n",
            "           Conv2d-27             [-1, 10, 1, 1]             320\n",
            "================================================================\n",
            "Total params: 9,784\n",
            "Trainable params: 9,784\n",
            "Non-trainable params: 0\n",
            "----------------------------------------------------------------\n",
            "Input size (MB): 0.00\n",
            "Forward/backward pass size (MB): 0.45\n",
            "Params size (MB): 0.04\n",
…
